assets/model.tflite (tflite, 3076 bytes, 6 tensors)

arith.constant f4 [3, 8]
000000 be 83 0e bf d1 27 8b be 80 ec ca be ac 73 43 bf
       -0.5566977 -0.27178815 -0.3963356 -0.76348376
000010 aa 30 bd be 98 6b 98 bd b7 c8 70 3f 51 6d 13 bf
       -0.3695119 -0.07442397 0.94056267 -0.5758868
000020 ac 54 90 bf 8a 92 87 3f 4d e9 56 bf fa a0 91 bf
       -1.127584 1.0591595 -0.8394974 -1.1377251
000030 18 d1 10 bf bd c1 c5 bd 2c d9 38 bf ef 52 1a bf
       -0.5656905 -0.09656093 -0.7220638 -0.60282797
000040 78 f8 7f 3f ff db 7a bf 76 9c 86 3f 04 07 ce 3f
       0.9998851 -0.9799194 1.0516498 1.6095891
000050 6c a6 1b bf c1 24 0c bf 37 ff 65 bf d5 0b b0 3f
       -0.60800815 -0.5474358 -0.8984255 1.3753611

arith.constant1 f4 [8, 16]
000000 59 f2 5c 3f d8 01 2d 3f 5e 73 de 3e e7 78 e3 bd
       0.86307293 0.6758094 0.43447393 -0.11107045
000010 b1 a0 21 3f a7 4a 26 3e c4 c2 1a 3c f4 c5 8e 3e
       0.6313582 0.16239415 0.00944585 0.278854
000020 32 be 1f 3e 85 6d dd 3e af 78 34 3f ce 04 02 3e
       0.15599898 0.4324762 0.7049665 0.12697145
000030 87 c2 58 3f d7 74 15 3f 76 c8 4c 3f 7a 54 8f be
       0.84671825 0.5838141 0.7999338 -0.27994138
000040 fc b6 ca be f4 4b 4d bf cb 7d 1e bf 6c af 00 3f
       -0.3959273 -0.8019402 -0.61910695 0.5026767
000050 70 55 03 be 46 fe ee 3e 59 94 75 3f 97 c9 73 be
       -0.1282556 0.4667837 0.95929486 -0.23807369
000060 50 cb 21 bf 57 58 a0 bf 42 48 00 3e db 62 f1 3e
       -0.63200855 -1.2526959 0.12527564 0.47145733
000070 ef 7b 22 bf d4 1b 04 be 08 4e 81 3d 49 f8 3c 3e
       -0.6347036 -0.1290124 0.063137114 0.18454088
000080 52 cd 0e 3f c0 16 de 3d 0e c4 0e 3f 03 7b 85 3d
       0.55782044 0.10844183 0.55767906 0.06517603
000090 16 2a 37 3e 8c b4 25 3f 1b eb a8 be 3e 2f 47 3f
       0.17887148 0.6472862 -0.3299187 0.7780646
0000a0 c7 61 f9 3d 78 78 4c 3f 72 97 0a 3f c6 fe ee b8
       0.12176853 0.7987132 0.5413734 -0.000113961796
0000b0 fb df 64 3f 12 e5 15 3f 38 4f 1d 3f 55 a3 36 be
       0.8940427 0.5855266 0.61449003 -0.17835744
0000c0 bb d5 84 3f 72 63 5e 3f 84 9c bc 3e a6 5f 4a be
       1.0377725 0.8687049 0.36838162 -0.1976305
0000d0 c2 5e 4a 3f 17 2b 10 3f 79 93 22 be de 0c 89 bd
       0.7905084 0.5631575 -0.15876569 -0.06691907
0000e0 5a 1a 2a 3f 6c eb 87 3f 7e 5f 3e 3f 88 0b 81 be
       0.6644646 1.061872 0.7436446 -0.2520411
0000f0 a9 dd 40 3f 29 bf 9d 3e f0 20 64 3f 2c 34 a3 bd
       0.75338227 0.30809906 0.8911276 -0.07968935
000100 4e a8 d5 be 37 44 de be b4 d4 9c 3e 97 28 0d 3e
       -0.4172997 -0.4341142 0.3063103 0.13785015
000110 2d be 4f 3e 9a 41 8f bd 8a b5 69 be 6f 8a a5 be
       0.2028739 -0.069949344 -0.22823158 -0.3233218
000120 3c ff 8d 3d e0 a3 4d 3d 9e 9a 92 be a7 ae e7 be
       0.06933448 0.05020511 -0.2863359 -0.45250437
000130 ca 74 a6 be 18 f1 e7 be 7b 6f 91 3e 66 e4 69 3e
       -0.32510978 -0.45301127 0.28405365 0.22841033
000140 b6 21 a1 bd ef 4c 3f be 43 db e6 be 2b 89 9c 3e
       -0.07867758 -0.18681692 -0.45089158 0.305734
000150 e4 d7 bc be cb 4f f2 be 8e 6c fb be 3a 6c 83 3e
       -0.3688346 -0.47326502 -0.49106258 0.25668508
000160 4d 61 97 be 3c 66 68 3e f1 90 a0 bd 62 1f 6b be
       -0.29566422 0.2269525 -0.078401454 -0.2296119
000170 75 44 d2 be 07 99 87 be 1f a7 b2 be 96 7b 87 bd
       -0.41067854 -0.26483938 -0.34893128 -0.06615369
000180 91 e2 69 3e 47 ca 14 be ba 2d 89 3e f4 85 1b bf
       0.22840334 -0.14530288 0.267927 -0.6075127
000190 c2 75 f4 be cf e7 1e be 24 f7 b4 3e 88 03 14 bf
       -0.47746092 -0.15518115 0.35344803 -0.5781789
0001a0 c6 8c 51 be 48 44 63 3d 37 00 e7 be cf 5a c9 3e
       -0.20463857 0.05548504 -0.4511735 0.39327094
0001b0 ee de 92 3e 78 4c 86 bd 5a 39 b0 3c 8c 77 c9 3d
       0.28685707 -0.06557554 0.021511722 0.09837255
0001c0 b2 32 58 3f 8d 90 e1 3e 74 36 0d 3f d1 25 24 bd
       0.84452355 0.44055596 0.55161214 -0.040075127
0001d0 c1 7e 58 3f 3b c6 45 3f 5a b1 ae be d9 a1 4b 3e
       0.8456841 0.772556 -0.34119684 0.19885959
0001e0 19 35 1a 3f 78 d0 6f 3f bd f8 73 3f a7 85 5c bd
       0.6023727 0.93677473 0.9530142 -0.0538384
0001f0 76 b2 7c 3e d1 78 12 3e ed 89 51 3f a8 f2 18 3e
       0.24677452 0.143039 0.81851083 0.14936316

arith.constant2 f4 [3]
000000 19 1d aa be 8d 72 84 3d 22 27 1c 3d
       -0.33225325 0.06467161 0.038123257

sequential_1/dense_1_2/BiasAdd/ReadVariableOp f4 [8]
000000 e4 c2 47 bc 11 56 8b 3e c2 43 c6 3d eb 85 98 3e
       -0.012192462 0.272141 0.096808925 0.2978967
000010 48 ea f2 bd 02 72 be bc 80 66 61 bd b4 65 71 3e
       -0.11861092 -0.023247723 -0.055029392 0.23573953

sequential_1/dense_1/BiasAdd/ReadVariableOp f4 [16]
000000 e0 d0 53 3e 07 a0 9a 3e 35 bb ae bd 06 21 a6 3e
       0.20685148 0.30200216 -0.08531801 0.3244707
000010 76 35 4c 3e 4a e0 2e 3e 74 7f 2d 3e 2e ec 47 3c
       0.19942269 0.17077747 0.16943151 0.012202306
000020 05 02 b8 3c 8a a2 e4 3e 77 27 51 3e 94 d9 34 3d
       0.0224619 0.44655257 0.20425211 0.04415281
000030 b1 71 c4 3d f1 47 85 3e 19 aa 94 3e 69 0f 21 be
       0.095919974 0.2603145 0.29036024 -0.15728535

sequential_1/dense_1/MatMul f4 [16, 4]
000000 79 97 37 bf b5 b8 c6 3e 0b 0f ac bd a0 3b 21 bf
       -0.71715504 0.38812795 -0.08401307 -0.62981606
000010 80 66 8a 3e 7a b9 0c 3e 02 7b c6 3e 51 1c 26 3f
       0.27031326 0.13742629 0.38765723 0.6488696
000020 c3 84 23 3f 6b 50 e8 be c4 cf c1 3e 5e 9c 23 3d
       0.63874453 -0.45373854 0.37853825 0.039944045
000030 98 c7 fc 3e 42 ae 2f 3e 6f c7 19 bf c0 71 f0 be
       0.49371028 0.17156318 -0.60069937 -0.46961784
000040 65 41 69 bf 2a 3d a6 3e b9 98 22 be a9 9c a3 be
       -0.9111541 0.3246854 -0.15878572 -0.3195546
000050 46 f5 d4 be 1d bc 08 be 65 1e 25 bc 5d ab fc 3e
       -0.4159338 -0.1335301 -0.010078047 0.4934949
000060 53 9f c4 3d 85 83 5d be 48 26 0d bf 4e 6d 1b 3c
       0.09600701 -0.21632202 -0.5513654 0.0094865095
000070 cc 65 22 3f 39 ba db be 84 89 93 3e e9 c6 cb be
       0.6343658 -0.42915514 0.28815854 -0.39800194
000080 e8 66 f5 bd 24 3d 62 3f 85 3d 1c be 4d 84 11 be
       -0.119825184 0.88374543 -0.15257843 -0.14210625
000090 f9 f3 2b bf 44 3c f1 3e b8 67 4c 3e 35 1c 62 3f
       -0.6716915 0.47116292 0.1996144 0.8832429
0000a0 e6 17 ec be bb 2b f1 3e 67 39 0f be 9f 52 84 be
       -0.46111983 0.47103676 -0.13986741 -0.25844285
0000b0 f2 5a ba be 49 8a c5 bd 92 97 cd be 80 94 9f bc
       -0.3639751 -0.096455164 -0.401547 -0.01947999
0000c0 2c d6 71 3f f4 1f 17 3f 78 fa 74 bd 22 a1 13 bf
       0.94467425 0.5903313 -0.059809178 -0.57667744
0000d0 5c d7 0e 3f 64 3b 64 3e da c5 a9 3e a4 e2 1a 3f
       0.5579736 0.2228828 0.3315876 0.60502076
0000e0 06 a6 48 be 47 37 32 bf 8b 6b 0a 3f d4 70 c3 be
       -0.19594583 -0.69615597 0.5407035 -0.3817202
0000f0 27 93 9d bd 7c f5 eb 3d e6 74 95 3e 55 ac f6 bc
       -0.07694083 0.11521432 0.2919075 -0.030111471
