assets/model2.tflite (tflite, 3076 bytes, 6 tensors)

arith.constant f4 [3, 8]
000000 b5 20 4b bf 10 2e 57 bf bc a0 32 bf a9 f0 56 bf
       -0.7934678 -0.8405466 -0.6977651 -0.8396097
000010 33 fa c5 bd 1d 7c 24 3f be 9d f6 3e 84 d0 cf be
       -0.09666862 0.6425188 0.48167223 -0.40588772
000020 07 86 9a bd 5c 48 fa 3e 28 60 1f bf b4 19 7a bf
       -0.07545095 0.4888333 -0.622561 -0.9769547
000030 4d 7b 90 3d f5 6c cd 3d e4 65 fe be 55 2b 0e be
       0.07054768 0.100305475 -0.4968711 -0.13883717
000040 c6 7a 84 3f 5f 7b 8f 3d f5 84 63 3f 07 7e c2 3e
       1.0349967 0.07005953 0.8887475 0.37986776
000050 2c fa d2 be c1 81 5a be c9 b9 2a 3f 81 5e 9a 3e
       -0.4120649 -0.2133856 0.66689736 0.30150226

arith.constant1 f4 [8, 16]
000000 1d 84 cc 3e d7 9c 1c 3e 6d 2d 9a 3a c1 5d 99 be
       0.39944544 0.15294205 0.0011762806 -0.2995434
000010 63 4d 01 3f dc ec 73 3d 43 46 9f 3e 82 60 4c 3d
       0.5050871 0.05955206 0.31108293 0.049896725
000020 63 29 aa be 7e 09 4a 3f 40 d3 f2 3d f8 59 ad 3d
       -0.332347 0.78920734 0.11856699 0.08464426
000030 74 f7 3a 3f 6a aa 6b be 88 22 5a 3e 68 c8 bd 3e
       0.73033834 -0.23014227 0.21302235 0.3706696
000040 41 5e 80 be ec 8e 9e be 73 0b 08 be 5e e2 f8 be
       -0.2507191 -0.30968416 -0.13285618 -0.48610204
000050 80 22 c4 3e 2e 41 fc bd 0d fd 7d 3e f2 43 23 bf
       0.3830757 -0.123171195 0.24803562 -0.6377555
000060 bc b2 26 be 52 e2 06 bf 6b 8c a4 be 92 20 d6 be
       -0.16279119 -0.5268909 -0.3213838 -0.41821724
000070 bd 36 cf 3d 31 ce 54 3d b3 cd d4 bd 40 b3 8b 3c
       0.101178624 0.051954452 -0.103907965 0.017053246
000080 53 f0 11 3f e3 a5 13 bc 82 93 c1 be aa 9e cf bb
       0.5700733 -0.009011718 -0.37807852 -0.006336053
000090 93 df 0b 3f cb db 18 3f 19 c5 d5 3e a9 50 28 3e
       0.5463802 0.5971038 0.41751936 0.1643702
0000a0 33 2e a1 be 1f 6f 8a 3e 66 e5 5d 3e 26 f2 24 3f
       -0.3148056 0.27037904 0.2166954 0.6443199
0000b0 3f 60 1f 3f 19 15 91 3e c9 81 b1 bd 0f 84 13 be
       0.62256235 0.2833641 -0.08667333 -0.14405845
0000c0 37 75 c9 3e 16 bf 89 3e 9a cb 38 be 80 51 2c be
       0.3934724 0.269036 -0.18046418 -0.16827965
0000d0 48 a6 18 3e 4f d3 6e 3c 4a 55 bf bc 27 66 8b be
       0.14907181 0.014576747 -0.023356099 -0.27226374
0000e0 af f7 ae 3e 31 61 18 3f 66 d6 b4 3e 3d a5 78 bd
       0.34173343 0.595233 0.35319823 -0.06070446
0000f0 7c 79 ee 3e 65 f7 5a bc e4 80 ea 3d c4 1e 3b 3f
       0.4657706 -0.0133646475 0.11450365 0.7309382
000100 83 27 e9 be 01 4d 38 bf f8 d5 09 3e 08 76 f2 be
       -0.45537958 -0.719925 0.13460529 -0.47355676
000110 94 4a ed be 61 0c 0f be 01 d9 9f 3d 0f 07 26 3f
       -0.4634596 -0.13969566 0.07805062 0.6485452
000120 a9 27 ce bd f8 3d 8e be 68 1e 25 3e 1e 8d a3 be
       -0.10066158 -0.27781653 0.1612488 -0.319436
000130 7c 58 84 3e dd c3 83 bc 2b 0e 10 bf dc 67 bc be
       0.25848758 -0.016084606 -0.5627162 -0.36797988
000140 b2 cd 35 be 25 4a b6 be e3 09 0d 3f 86 0b cd 3e
       -0.17754248 -0.35603443 0.5509321 0.40047854
000150 27 2e de 3e f1 ab 9e be 84 c2 24 bf e9 ec 51 3d
       0.43394586 -0.30990556 -0.6435931 0.051251326
000160 34 c7 f1 3e 56 0f 15 bf c5 22 8f 3e ce af 5e be
       0.47222292 -0.58226526 0.27956215 -0.21746752
000170 57 24 91 be 40 74 61 3e 61 3c 95 3e 30 7c 1e be
       -0.28348038 0.22017002 0.29147628 -0.15477061
000180 a4 b6 13 3f 84 a3 a1 3e 1d 7b b3 be 16 f7 28 be
       0.5770056 0.31570065 -0.35054865 -0.16500506
000190 d2 0e 8a 3f 38 50 17 3f df a5 d7 3e 0f 0f 05 be
       1.0785773 0.5910678 0.42118737 -0.12994026
0001a0 1d 39 48 3e b1 3d 23 3f 26 a2 8c 3d 6e bb d0 3e
       0.19553037 0.6376601 0.06866865 0.40767998
0001b0 d4 fc 5b 3f d9 3e 28 3f 00 29 69 3e 74 31 1b 3f
       0.8593266 0.657209 0.22769547 0.60622334
0001c0 28 ef f6 3e 5d 5f 0f 3f ba 63 7b 3e 99 ef 70 3a
       0.48229337 0.5600489 0.24549761 0.0009190976
0001d0 9d 27 22 3d a4 df f5 3e 0a b0 30 3e 1a 68 46 3e
       0.03958856 0.48022187 0.17254654 0.19375649
0001e0 15 96 77 be 3a 3c 57 3f 61 d9 27 3f df 5d aa 3d
       -0.24178346 0.84076273 0.6556607 0.08318686
0001f0 1e af 16 3f 1b 05 67 3d de c5 a4 bd b3 01 32 3f
       0.5886096 0.056401353 -0.08045553 0.6953384

arith.constant2 f4 [3]
000000 65 d1 77 bd dd ee 14 be 7d 73 d0 3d
       -0.06050243 -0.14544244 0.10178278

sequential_1/dense_1_2/BiasAdd/ReadVariableOp f4 [8]
000000 30 a1 e1 3d 23 89 97 bd 83 13 23 3e 0a 7c c8 3d
       0.11017072 -0.07399204 0.15925412 0.097892836
000010 34 87 0f 3e e7 eb 7f 3c 0b 46 50 3e f9 f2 b4 3d
       0.1401642 0.015620208 0.2033922 0.08835406

sequential_1/dense_1/BiasAdd/ReadVariableOp f4 [16]
000000 f5 f7 a8 3e bf 19 10 be ea d9 29 bc 07 6e 26 be
       0.33001676 -0.14072321 -0.010366896 -0.1625291
000010 47 3a 83 3e eb 2e 36 3e c9 9c c0 3e e4 25 d0 bb
       0.256304 0.17791335 0.37619618 -0.006352173
000020 36 e5 ec 3c c4 08 bd 3e 7a 3c 8c bc 8a 5e 09 3e
       0.02891789 0.3692075 -0.017118681 0.1341497
000030 06 fd a6 3e 2e 05 2a 3e 1a 20 ff bd 74 6c 6c 3d
       0.32614917 0.16603538 -0.12457295 0.057720616

sequential_1/dense_1/MatMul f4 [16, 4]
000000 3e 3e 2f bf a8 78 0f bf 56 5d 26 3f dc e1 b7 be
       -0.6845435 -0.5604348 0.6498617 -0.35914505
000010 67 c1 d6 3d 80 86 ba 3e 42 b9 fa 3c a5 bc 1b 3f
       0.10486107 0.3643074 0.030605916 0.60834724
000020 79 29 52 3e 40 b8 c4 bd d4 cd 1e bf 53 c9 d8 3e
       0.20523633 -0.096054554 -0.6203282 0.42341098
000030 85 09 05 be c2 ee 85 3d 96 36 c1 3e eb 7d 08 3e
       -0.12991913 0.0653968 0.37736958 0.13329284
000040 c3 9a 45 3f 55 ed e0 be 5f 28 36 3f aa 4c 10 3f
       0.7718927 -0.4393107 0.7115535 0.5636698
000050 66 d9 89 3e 64 46 1d 3f 16 a1 37 3d be f1 c6 3e
       0.26923674 0.6143553 0.044831358 0.3885631
000060 fd 05 f7 3e 00 08 8a 3e 56 16 85 3e a3 21 46 bf
       0.48246756 0.2695923 0.25993603 -0.77395076
000070 88 0f ca be 7e 2c 9a be 03 92 a1 be a6 44 cf be
       -0.39464974 -0.3011207 -0.3155671 -0.40482062
000080 a4 3e a5 be cd ed 03 be dd bf a4 be 08 81 17 3e
       -0.32274354 -0.12883683 -0.3217763 0.14795315
000090 2c b4 4f 3e 31 1d 20 3f b2 5d 68 3e ad 29 1a 3e
       0.20283574 0.6254454 0.22691992 0.1505496
0000a0 e8 f9 86 be 73 a6 2a 3c 4e 56 ca 3d 06 86 fd 3e
       -0.26362538 0.010415661 0.098797426 0.49516314
0000b0 4f dd 75 bc bd 40 b4 bd fa cf 07 be 45 8d 4b bf
       -0.015006377 -0.0880141 -0.1326293 -0.79512435
0000c0 24 66 11 bf 76 19 89 3e 1a be 5b 3e 5b f0 4a 3f
       -0.5679648 0.26777238 0.21459237 0.79273003
0000d0 05 d5 e2 bd 98 06 15 bf f6 6f ce 3e 28 64 0c 3f
       -0.110757865 -0.58213186 0.40319794 0.54840326
0000e0 0f 30 85 3d c5 3a d3 3e e6 17 90 be 8d a6 92 be
       0.06503307 0.41255775 -0.28143233 -0.28642693
0000f0 87 23 67 bf d7 b4 e3 3e d0 ba 9a be 15 ec 22 be
       -0.90288585 0.44473907 -0.30220652 -0.1591037
